models/independent_ppo/ppo_actor.pth (torch, 109208 bytes, 8 tensors)

fc1.weight f4 [64, 18]
000000 f2 d6 a5 bc 4b 35 97 3d bb 38 74 bd ca 16 55 3e
       -0.020244095 0.07383212 -0.059624415 0.20809475
000010 14 fb 92 3d 5e 52 2c be db e2 98 bb 6b e7 46 be
       0.071767956 -0.16828296 -0.004665715 -0.19424216
000020 7b 88 30 bc 13 59 00 be 1d 6c 50 3d 76 c7 16 3e
       -0.010774727 -0.12533979 0.050884355 0.14724526
000030 9e 3b 7a 3b 6a 31 17 3c b3 45 d5 bc 39 11 25 3a
       0.0038182507 0.00922809 -0.026034212 0.0006296817
000040 9e cb 8c 39 37 f3 eb bc fb c9 32 bd 8f 9d 02 39
       0.00026854587 -0.028802497 -0.043649655 0.00012456461
000050 02 01 a2 bd 33 92 e3 3d d6 01 83 3d 11 a7 f4 bd
       -0.079103485 0.1111187 0.063968346 -0.11945928
000060 31 63 06 bd 17 a8 c4 bd 81 35 2a bd 21 0d b2 bd
       -0.03280944 -0.09602373 -0.04155493 -0.086939104
000070 ac dc 00 bd 78 2f fe 3c 05 82 14 3d ef 19 e7 bd
       -0.03146045 0.031028494 0.03625681 -0.11284243
000080 51 61 82 bc 37 37 fa 3b c5 5d e2 3b 29 2b ae 3c
       -0.015915545 0.0076359767 0.006908151 0.021260815
000090 15 70 f2 3c 3a 6f 99 3d 78 9d f9 bc 9c ce 99 3e
       0.02959446 0.07491918 -0.030470595 0.30040443
0000a0 89 86 5f 3d f6 51 70 be c3 af 91 bc d3 bf 89 be
       0.054571662 -0.23468766 -0.017784005 -0.26904163
0000b0 51 9c a8 bc 38 e8 8c be 1d 63 58 3d 83 82 21 3e
       -0.02058235 -0.2752092 0.052828897 0.15772443
0000c0 16 71 4a 3d 85 86 fa 3c 27 98 a0 3c 49 be 38 bc
       0.049424253 0.030581722 0.019603802 -0.011275836
0000d0 c6 dd fd 3c 0f 51 52 3c 45 c7 b9 3c de 13 3f 3d
       0.030989539 0.012836709 0.022678027 0.046649806
0000e0 c3 02 52 bd e5 6c 4c 3e 88 ba d9 3d 88 fb 32 be
       -0.051272165 0.19963415 0.10631281 -0.17478764
0000f0 dd 6f 4c bd 65 08 49 be 61 32 dd bc df a1 3d be
       -0.04991137 -0.19632109 -0.027001562 -0.1851878
000100 ef 8a 8d 3d d3 3c 22 3e 47 1b 1b 3d 98 0a ac bc
       0.06911265 0.15843515 0.03786781 -0.021001145
000110 ad 83 bf 3c ac f1 66 3b 90 67 04 bd 1e fe 57 3d
       0.023378218 0.0035239263 -0.032325327 0.05273258
000120 d0 d6 06 3d 3d a9 50 3d 88 4c 2d bd 01 bb 97 3e
       0.032919705 0.05094265 -0.042309314 0.2963486
000130 1f ab 85 3d 43 f7 8d be 3c 1a a4 3c a1 20 8b be
       0.065267794 -0.27727708 0.02003204 -0.2717333
000140 47 b8 05 bd 95 3e 7a be e3 ad 22 3d 31 25 13 3e
       -0.032646444 -0.24437936 0.039716613 0.14369656
000150 55 2e 41 3d a5 3a f6 bb 05 76 02 bd 04 99 2b bc
       0.047163326 -0.007514315 -0.031850833 -0.0104734935
000160 40 70 05 bc 10 7f a6 bc b7 4b b5 3d a5 1e 21 3d
       -0.008144438 -0.02032426 0.08852332 0.039335866
000170 19 c1 52 3b 9d d4 9d 3e 59 c8 27 bc 67 f4 82 be
       0.0032158552 0.30826274 -0.010240638 -0.2557709
000180 bc fd 6f 3c 65 99 98 be 53 6c cd 3c 2f 28 7a be
       0.014647897 -0.2980453 0.025076067 -0.24429391
000190 3c 7f 74 3d 0f 2a 34 3e 8a 59 cc 3b b8 20 91 3d
       0.059691653 0.17594169 0.00623626 0.07086319
0001a0 77 57 bb 3b ff 00 91 3c f3 c8 d8 3b 7d bc 03 3c
       0.0057172137 0.01770067 0.006615752 0.008040545
0001b0 1d b1 78 3d 5f b8 1a 3d 7a 3b 27 bd 22 68 93 3e
       0.060715783 0.037773486 -0.040828206 0.28790385
0001c0 43 a7 90 3c 12 14 8e be ce 8b 1f 3c 35 80 a3 be
       0.017657882 -0.27749687 0.009737922 -0.31933752
0001d0 b9 15 0e bd 69 5e 69 be 19 50 04 3c 51 ca 33 3e
       -0.034688685 -0.22789921 0.008075737 0.17557646
0001e0 ea 29 56 3c 85 be 4c 3d 8d d1 07 bc 20 0d b5 3a
       0.0130715165 0.04998638 -0.008289707 0.0013813116
0001f0 90 d8 4c 3b af 95 a6 3c 95 d8 80 bd e7 87 9a bc
       0.003125701 0.020335047 -0.0629131 -0.018863631
000200 25 94 22 bd 75 31 50 3d 8a c7 9c 3d 24 bd 44 bb
       -0.039692063 0.050828416 0.076552466 -0.0030019963
000210 83 9e b3 bc c2 d4 46 bd c9 38 01 bd 3c 26 5b bd
       -0.02192617 -0.048542745 -0.031548295 -0.05350326
000220 b9 99 f3 bc 13 3a b4 bd df 5d 14 3d 1f 74 a3 bd
       -0.029736387 -0.08800139 0.036222335 -0.07981133
000230 ae d8 df bb 1e 4a 1d bc e1 b8 7e 3c c6 f8 c3 3c
       -0.00683125 -0.00960019 0.015547008 0.023922335
000240 b8 99 d8 bc 63 1a ce bc 80 48 07 bd 2b 47 da bd
       -0.026440486 -0.025159067 -0.033028126 -0.106581055
000250 12 50 84 3c 5b 2b c4 3d e0 91 68 bc db 8b b7 3d
       0.016151462 0.09578582 -0.014194936 0.08962222
000260 a1 ec 48 bc a9 8f f2 3d 88 1f a0 bd 17 13 4a be
       -0.012263448 0.11843807 -0.07818514 -0.19733845
000270 e2 ba 40 3c dc 91 c2 bd 24 3e c6 3c 7d df 6f bc
       0.011763306 -0.09500477 0.024199553 -0.014640686
000280 4f fe fe b8 06 a0 0d bd 26 41 2c bd f7 4d 08 3c
       -0.000121590325 -0.03457644 -0.042054318 0.0083193695
000290 73 32 dc bc 67 dd 62 3e 25 27 70 3d c6 0a 75 be
       -0.026879525 0.22154771 0.05863108 -0.23929891
0002a0 fc 1b 61 bd 50 1f 5b be 9b 1d 59 ba 71 e0 42 be
       -0.05495833 -0.21398664 -0.00082823046 -0.1903093
0002b0 13 2e 9f 3d 23 c9 1d 3e 86 3f 6d 3d 60 43 b0 bc
       0.0777246 0.15408759 0.05792191 -0.021516502
0002c0 45 20 73 3c cc ef 7b 3c 57 b5 13 bc b9 1c a6 3c
       0.014839237 0.015376996 -0.009015403 0.020277368
0002d0 f8 71 6f 3d 83 09 42 3d c1 1d 9a bd 4b 43 80 3e
       0.0584583 0.047372352 -0.07525206 0.2505134
0002e0 50 43 44 3d 7b 30 59 be b6 f7 96 bc 07 7e 65 be
       0.047915757 -0.212099 -0.018428665 -0.22411357
0002f0 6f ec 46 bd a8 5c 06 be 1d 3b d2 3c ef 82 15 3e
       -0.048565324 -0.13121283 0.025662953 0.14600728
000300 0d ea a3 3d 1d d5 dc 39 d7 14 0c 3d 62 18 8c 3c
       0.08003626 0.00042120452 0.034199562 0.01710147
000310 e1 34 6b 3c 2d 47 a8 3c 46 22 fe bc 47 44 49 bd
       0.014355869 0.020541752 -0.031022202 -0.04913738
000320 f9 2b 4c bd 4f 90 26 bd f2 3b 84 3d 03 03 0f 3d
       -0.049846623 -0.040664967 0.06456746 0.03491498
000330 3a 5d 27 bd b0 d7 04 3d fd 6e a7 bd 24 9c b3 3b
       -0.040860392 0.032432258 -0.08175466 0.00548126
000340 a5 bd 0e bd 06 7c ec bd 01 be f2 3c ab f8 ea bd
       -0.034848828 -0.11547093 0.029631617 -0.11473211
000350 9e 70 73 bc 77 20 73 3b 8c e6 73 3b 29 e5 f3 3c
       -0.014858393 0.0037098208 0.0037216274 0.029772358
000360 4f 72 7c 3d 6d b3 71 3d 32 a4 2e 3c 51 89 90 3e
       0.06163245 0.059009004 0.010659264 0.28229764
000370 86 44 55 3d 33 01 83 be 30 72 35 3c 28 cb 9e be
       0.052067302 -0.25586852 0.011074588 -0.3101437
000380 c2 3a 84 3c 12 e3 63 be f2 60 48 3d a7 5d 1b 3e
       0.0161413 -0.22254589 0.04892058 0.15172444
000390 cc 9a 91 bc c2 2f 13 3d 34 0f b2 3c f8 b0 6d bb
       -0.017774008 0.035934217 0.021735765 -0.0036268812
0003a0 8e 83 a2 3c 5e d7 be bc 9f 2e 1e 3d b6 71 8f 3d
       0.01983812 -0.023296054 0.03861868 0.070041105
0003b0 f7 00 a2 bd 24 ed 70 3e dc 0c 2e 3d 62 70 0d be
       -0.0791034 0.23527962 0.042492732 -0.13812402
0003c0 ed 9f 1f bc eb da 6a be e2 b8 7f bc 13 6e 4b be
       -0.009742719 -0.22935073 -0.015608044 -0.19866209
0003d0 52 8a c9 3c f4 57 41 3e 51 ac 83 bb 76 8e 7d 39
       0.02460209 0.18881208 -0.0040183445 0.00024181031
0003e0 73 70 ab 3c 94 20 09 3d 95 73 35 bb 7b ea 25 3c
       0.020927643 0.033478335 -0.00276873 0.010126705
0003f0 c4 cb 19 3d c1 67 cd 3c 62 aa 34 3c cc 72 87 3e
       0.03754784 0.025073888 0.011026951 0.2645477

fc1.bias f4 [64]
000000 6b a9 88 3f 03 43 83 3f e1 14 7f 3f 00 bf 83 3f
       1.0676702 1.0254825 0.99641234 1.0292664
000010 22 b0 83 3f d1 04 81 3f c0 56 7c 3f 69 12 86 3f
       1.0288126 1.0079595 0.9856987 1.0474368
000020 c9 fb 83 3f 77 a2 84 3f 0f 2f 87 3f 02 81 83 3f
       1.0311214 1.036208 1.0561236 1.0273745
000030 e9 82 83 3f e2 f0 84 3f 15 5a 81 3f 47 d9 82 3f
       1.0274326 1.0386012 1.0105616 1.0222558
000040 56 d2 83 3f a6 d9 83 3f 7d 30 88 3f a4 6b 7b 3f
       1.0298564 1.0300796 1.0639797 0.9821112
000050 c6 35 86 3f bc d6 82 3f 33 5e 84 3f c6 9e 75 3f
       1.048516 1.0221782 1.0341247 0.95945394
000060 18 ce 86 3f 5b d2 86 3f c0 43 7a 3f 7a db 81 3f
       1.0531645 1.0532945 0.9775963 1.0145104
000070 93 67 84 3f 9a 03 7f 3f 0b 64 86 3f bf be 85 3f
       1.0344108 0.9961487 1.0499281 1.0448836
000080 99 d9 89 3f a0 e4 83 3f 10 13 84 3f 1c 91 84 3f
       1.076953 1.0304146 1.0318317 1.0356784
000090 dd 64 85 3f 2d bc 86 3f 2c d5 79 3f 96 68 78 3f
       1.0421406 1.0526177 0.975909 0.97034585
0000a0 78 da 8a 3f e1 94 86 3f 14 34 84 3f a6 e5 82 3f
       1.0847921 1.0514184 1.0328393 1.0226333
0000b0 33 48 73 3f 5a 0e 89 3f 08 f8 85 3f 7f 4a 88 3f
       0.9503204 1.0707505 1.0466318 1.0647734
0000c0 0f 72 80 3f 78 6b 86 3f 22 9f 83 3f de 77 88 3f
       1.0034808 1.0501547 1.0282938 1.066158
0000d0 c0 b5 79 3f 7b 6a 81 3f cf bd 7e 3f 8a 0e 83 3f
       0.97542953 1.011062 0.99508375 1.0238812
0000e0 2f 6b 80 3f 68 d0 87 3f 54 da 89 3f 75 0a 87 3f
       1.003271 1.0610476 1.0769753 1.0550066
0000f0 d4 51 89 3f 4a 4c 7e 3f 76 f8 84 3f db 9d 81 3f
       1.0728097 0.9933516 1.0388324 1.0126299

rnn.weight_ih f4 [192, 64]
000000 72 92 f0 3d 6b 5e b4 bd 50 5d 8e b9 7b ed 68 3d
       0.11746682 -0.08807071 -0.00027153874 0.056867104
000010 05 b7 51 3d ac 4b 1b 3d 18 ff 41 bd 96 72 b8 bc
       0.05119993 0.037913963 -0.047362417 -0.022515576
000020 59 ad 40 bc 27 90 0b 3e bb fe 52 bd 23 4a 85 bd
       -0.011760079 0.13629209 -0.05151246 -0.06508281
000030 95 8b b8 3d 16 ad c6 3d a2 a2 cb bc 17 55 11 be
       0.09010998 0.09700982 -0.024857823 -0.14192615
000040 7b 39 45 3d 41 6f 6a 3c 72 5c 6c 3d a6 0e e9 3d
       0.04815052 0.014308752 0.05770535 0.11379747
000050 0f 2a 94 3d 0c 24 f4 3d 77 d9 85 bc 2e dd 05 3e
       0.072345845 0.11920938 -0.016339047 0.13072655
000060 89 c7 a6 bc 73 e5 18 be 43 e9 3d 3b 79 83 bd 3d
       -0.020358818 -0.14931278 0.0028978146 0.09253592
000070 76 40 f8 bd 20 cf 2b 3c 92 67 eb bc ab 0e 02 bd
       -0.1212167 0.010486394 -0.02873591 -0.03175227
000080 0b b9 ff bd 06 a5 d8 bc 55 2f bc 3d ed b2 0e 3e
       -0.12486466 -0.026445877 0.09188715 0.13935442
000090 5f 5f f6 3d 4a be eb 3d b0 22 90 3d 59 57 0c 3e
       0.12029909 0.11510904 0.07037866 0.13705195
0000a0 a8 70 69 bb 9e f8 98 bd 67 fc ff 3d 27 57 89 3d
       -0.0035620127 -0.07469295 0.12499314 0.06706076
0000b0 c1 98 83 3d b5 9b 81 3d 9c 64 d9 bd e8 38 4d 3d
       0.0642562 0.06328527 -0.10614893 0.0501031
0000c0 89 8c 42 bd a7 c2 b9 bd 53 a2 9b 3d d0 af a7 3d
       -0.047497306 -0.0907033 0.0759932 0.081878304
0000d0 07 7b dc bc 0f 95 a4 bd 39 81 ea 3c 2f 62 b1 3d
       -0.026914133 -0.08036243 0.028626071 0.08661305
0000e0 9a c7 ec 3d a0 cc cf 3c 49 fc 9e 3d c2 36 0e bc
       0.115615085 0.025366127 0.07762963 -0.0086800475
0000f0 1f 64 c0 3d 8e 22 fe 3c 67 be 92 3d 51 bf 3d 3b
       0.093940966 0.031022336 0.071652226 0.0028953145
000100 94 18 3f 3d 16 bb 9b 3d 8b 32 0e 3d 3d 7b 8d 3d
       0.0466543 0.07604043 0.03471617 0.069082715
000110 11 9d 09 3e 78 c8 41 3e ee 96 c8 3d 15 d2 ba 3d
       0.13438822 0.18924129 0.097944126 0.09122101
000120 b9 22 b5 bd 1e ee ea bc 91 46 03 3d 18 bb d6 3d
       -0.088445134 -0.028677996 0.03204972 0.10484904
000130 b5 fa 0b 3d ad 3c 64 3d aa c0 e1 3d 05 21 0b be
       0.03417464 0.055721927 0.11023076 -0.13586815
000140 09 5a 0f 3e 56 06 1c 3b 69 87 b6 3a 26 0f 13 3e
       0.1399919 0.0023807487 0.0013925853 0.14361247
000150 6a d5 01 3d d5 af c9 3b 63 c2 bc 3d e2 f2 0c 3e
       0.031697668 0.006154994 0.09216764 0.13764527
000160 dd 85 cf bd 05 f1 b0 3d d3 c5 68 3e b0 7e 33 3d
       -0.10132954 0.08639721 0.22731714 0.04382199
000170 17 00 de 3d 4e cf c3 3b 20 02 54 3d cc 8b 5d 3e
       0.10839861 0.0059756404 0.05175984 0.2163536
000180 ff 7d c6 bd b1 d9 43 3e 3e 94 0e 3c 7d 2f 26 3e
       -0.096920006 0.19126011 0.008702336 0.16229053
000190 30 20 2c 3e 54 1b 29 3e 72 4f 02 bd 83 cf a7 3d
       0.16809154 0.16514331 -0.031814046 0.081938766
0001a0 c9 30 c2 3d 79 dc 80 3d 25 2b 31 3e fd e0 fb 3d
       0.09481961 0.06292052 0.17301615 0.122987725
0001b0 e3 ec 6d 3c 1a 01 15 3e 90 99 ba bd ce 5a 75 3c
       0.01452181 0.14551201 -0.09111321 0.014975263
0001c0 2a dd 44 3d 7e 3b 7c 3d 0e 2c 2c 3d 9e a6 5b 3d
       0.04806248 0.061580174 0.0420342 0.053625695
0001d0 e2 60 22 3e de 82 e3 3d a9 fc 93 3c 24 d1 88 3d
       0.1585727 0.11108945 0.018064814 0.066805154
0001e0 62 5f 50 3e 0e aa ec 3d 29 f4 17 3e 99 ef b1 3d
       0.20348886 0.11555873 0.14839233 0.08688278
0001f0 d1 4b 6f 3d 0e ed fe 3c 7c 1a ef 3d a2 cd d6 3d
       0.058421914 0.031118896 0.11674973 0.1048844
000200 c3 4e af 3d a1 da 84 3d f9 7b 27 3d 6a 74 b4 3d
       0.085599445 0.06487013 0.040889714 0.08811267
000210 d4 46 32 3e 8a 3a 84 3d df cf 8a 3d 6b b1 97 bc
       0.17409831 0.06456478 0.067779295 -0.018517217
000220 66 b7 82 3c 0b 5b 35 bd de 6c 44 3d 1b fa b7 3d
       0.015956592 -0.04427628 0.047955386 0.08983251
000230 b6 e5 80 bc a4 56 7c bd f0 77 37 3e 4c c9 5b be
       -0.015734535 -0.061606064 0.17916846 -0.21463507
000240 c1 57 0e bd 7e a4 8d 3d f1 39 f8 3c be cf 0a 3e
       -0.034751657 0.0691614 0.030301066 0.1355581
000250 30 25 59 3d 01 18 c4 3d 9b ee 80 bc 50 e6 c9 3d
       0.05301398 0.09574891 -0.015738776 0.09858382
000260 5d 90 96 bc 4a ab 48 be c9 d6 23 ba 6d 32 70 bd
       -0.018379385 -0.19596592 -0.0006249962 -0.05864184
000270 76 87 00 3e a1 5b 85 3c 36 b4 d4 3c ba 18 e9 3d
       0.12551674 0.016279044 0.025964838 0.11381669
000280 fa fc 16 bd ca dc 89 3c be 5c 19 3e 66 43 df 3d
       -0.03686235 0.016828913 0.14976785 0.10901527
000290 fe 81 a1 3d c9 6b 93 3d 9c ce 97 bd 0d 73 f5 3b
       0.07886122 0.07198293 -0.074124545 0.0074905218
0002a0 3c 35 9c bd 4a 11 fd 3d d7 83 91 3c 1d 6d 02 3e
       -0.07627341 0.12356813 0.017763061 0.12736936
0002b0 e4 a1 96 3d 1e 85 63 bd 37 65 02 be 86 44 25 bb
       0.07355097 -0.055546872 -0.12733923 -0.0025217845
0002c0 af bb c1 3c 04 3e ae bb a7 30 01 3e 0b 40 2e bd
       0.023649065 -0.0053174514 0.12616216 -0.042541545
0002d0 a1 02 f3 3c b9 0c 31 3d ed ca 12 3e d5 a6 50 3c
       0.02966434 0.043225024 0.14335223 0.012735088
0002e0 bf bb 80 bd 41 95 00 3e 29 c3 0d bd 1f fb ef 3b
       -0.0628581 0.12556936 -0.034609947 0.007323637
0002f0 75 74 2e 3d f6 c2 d8 3d ab fb f1 bc 07 24 36 bd
       0.04259153 0.10584061 -0.02953895 -0.044467952
000300 86 10 b3 3c 08 53 bb 3d 0e 4c 95 3d 8c 64 0f bd
       0.021858465 0.09146696 0.07289897 -0.035008
000310 ca 31 07 3e bd eb 9b bc 9d 53 ce 3c 5f d1 ad bd
       0.13202587 -0.019033307 0.025186354 -0.084872
000320 b4 9c 79 3d db 0a f4 3d ae ee 70 bd 8e 35 0f bd
       0.06094046 0.11916133 -0.058821373 -0.034963183
000330 d6 e2 d5 bc 4b c5 a2 3d d2 99 3e 3e 4e 99 9a bd
       -0.02610914 0.07947787 0.18613365 -0.07548772
000340 d8 df 7a bb 6d c3 41 3e d7 03 0a 3d 42 1d f9 bc
       -0.0038280394 0.18922205 0.03369507 -0.030409459
000350 e8 c2 a9 bd b6 4c 22 bd d0 f4 88 3d 44 db 87 3d
       -0.082891285 -0.03962394 0.06687319 0.066336185
000360 eb d5 3c be a4 97 b2 bd bd 35 14 3e 7e 82 d7 3b
       -0.18440978 -0.087203294 0.14473625 0.006576835
000370 fc d4 1d 3d ed 56 5a 3d cf 69 2b 3c 0b 8f 08 3d
       0.038533196 0.053305555 0.010462238 0.03333954
000380 c4 f9 ed bd 12 69 20 bd e3 fb 38 3d cc 25 05 3e
       -0.11619905 -0.039162703 0.045162093 0.130027
000390 b8 0a 09 3d d7 a4 1b 3d 30 06 1d 3d cc 1a a2 3d
       0.033457488 0.037999 0.03833598 0.07915267
0003a0 5a 3f 87 bd 74 f3 50 bd ba da 3e bd 86 38 96 bc
       -0.0660388 -0.051013425 -0.046595313 -0.0183375
0003b0 4d 84 cc 3d ca 2b 47 bc 03 07 16 3d e9 1e 0f bd
       0.09986172 -0.012156436 0.03662778 -0.034941588
0003c0 79 db c6 bc 67 e0 7f 3d d8 2f 92 3b 77 c4 d5 3d
       -0.024274575 0.062469866 0.00446127 0.10437863
0003d0 a7 2f 37 3e 56 52 f1 3d 27 68 3a 3e 86 be 84 bd
       0.17889272 0.117832825 0.18203793 -0.06481652
0003e0 b7 cf f7 3d ac 21 43 3d 7d d2 02 3e de 47 ed 3d
       0.12100165 0.047639534 0.12775607 0.11585973
0003f0 f7 97 95 3c c6 20 5b 3c 02 cc c8 bd fa 45 9e 3d
       0.018260939 0.013374513 -0.098045364 0.07728191

rnn.weight_hh f4 [192, 64]
000000 b1 18 8b 3d 0b 04 ce 3d 0f 2a 35 be 6d 52 6a bd
       0.06791819 0.10059365 -0.17691825 -0.057207514
000010 0a 60 89 3d d8 06 05 be e6 6c 11 3e 6a 26 af bd
       0.06707771 -0.12990892 0.14201698 -0.08552249
000020 53 bf 32 3e d8 73 db bd 3d 9b ec bd cb c0 a1 bd
       0.17455797 -0.10715455 -0.11553047 -0.078981005
000030 c9 40 3f bd b3 eb b1 bd 45 0f 88 3e 58 86 75 3c
       -0.046692643 -0.08687534 0.2657415 0.014985643
000040 94 2f 8c bd cd 29 62 be d8 06 7d bd 9c cd 0c bd
       -0.06845012 -0.22086258 -0.061774105 -0.034375772
000050 1a 81 1f bd 2a 4a af 3c 10 2c cd 3d ae d4 38 3e
       -0.03894148 0.021397669 0.1001817 0.18049881
000060 b7 38 29 3d 67 0f 3c bd 85 a2 12 3d f6 4b a0 be
       0.041313853 -0.045913126 0.035799522 -0.31307954
000070 7b 1a a0 3d e8 d9 df bd 73 cf bd bb c3 06 00 3e
       0.07817551 -0.10930234 -0.005792552 0.1250258
000080 0a 92 c1 bc 32 48 97 3d c8 24 6d 3d 51 e0 bc 3d
       -0.023629207 0.07386817 0.057896405 0.092224725
000090 95 f9 0c 3e d7 2d 42 3d 89 70 77 3e 3c 9b 7b be
       0.13767083 0.047406998 0.24164023 -0.24570936
0000a0 4d 4d c0 3d 24 85 4b 3e 25 ac 12 bd 97 e1 1d 3d
       0.09389744 0.19875008 -0.0358087 0.038545217
0000b0 91 fe 73 3e d1 42 9a bd 1b bd b1 bc b3 e9 78 3d
       0.23827578 -0.075322755 -0.021696618 0.060769748
0000c0 f1 bd 07 3e 8b 93 21 bc 2b 51 b8 3d 6a 5b 23 bd
       0.1325605 -0.009861837 0.089998566 -0.0398821
0000d0 15 86 43 be 28 1a 79 3c 3d b6 82 3e e3 18 6b 3e
       -0.19094117 0.01520399 0.25529662 0.22958712
0000e0 33 ac db ba 74 ef c3 bd da f8 a6 3d 28 d5 3f bd
       -0.0016759693 -0.095671564 0.081529334 -0.04683414
0000f0 c6 bb 49 3d c7 c2 65 bc 14 1f fd bd 50 ba 49 bd
       0.04925134 -0.014023489 -0.12359443 -0.049249947
000100 bd 32 ab 3d 41 1a 2d 3e f0 16 9d be 70 22 47 3e
       0.08359287 0.16904546 -0.30681562 0.1944673
000110 33 d4 a8 bc 76 3a 58 bd 8c b6 82 3e d6 06 52 be
       -0.020608997 -0.052790128 0.25529897 -0.2051042
000120 87 67 92 bd 3f 11 e6 bb da b5 1c bb 63 4b c5 3c
       -0.071486525 -0.007021099 -0.0023912103 0.024083799
000130 ef cc fa 3c 4a af 5d bd ca 9c 8e 3e bf 28 2d 3c
       0.030615298 -0.054122247 0.27853996 0.010568797
000140 2b 7e 30 bd e8 d8 fc bd 68 c7 8d 3e e7 0a a1 bd
       -0.043089073 -0.12346059 0.27691197 -0.078634076
000150 50 d2 b3 3b 2d 74 da 3c fc 50 f2 3d d9 86 d2 3e
       0.0054877177 0.026666725 0.11831853 0.41118506
000160 40 cf 68 bd dd c7 ee 3d 31 06 47 3e e5 d7 29 be
       -0.056838274 0.11659215 0.19435956 -0.16586263
000170 c0 42 f3 ba 0b c8 71 3c da dc 61 3d c4 b8 c4 38
       -0.0018559322 0.014757167 0.05514226 9.3804236e-05
000180 54 2c 86 3e 16 f7 45 bd e0 90 3e 3e f8 e6 87 3d
       0.26205695 -0.048331343 0.18609953 0.06635851
000190 cc 5f 2d 3e 74 dc 3f 3e a7 ec 4c 3e 2c 9c 95 be
       0.16931075 0.1873644 0.2001215 -0.29220712
0001a0 93 90 bf 3c e7 f6 d2 3d 7b 62 23 bd be 79 2d 3e
       0.023384368 0.10300999 -0.03988884 0.16940972
0001b0 b1 64 7d 3e 83 a7 b7 3d 5c 2a 72 bd 35 e6 b2 3d
       0.24745442 0.08967497 -0.05912243 0.08735315
0001c0 5c 9f 0a 3e d2 75 08 be 27 25 f9 3d cc 05 c4 bd
       0.13537353 -0.13326195 0.12165289 -0.09571418
0001d0 de 5d 86 be 14 20 8e 3d 35 71 5e 3e bc b3 26 3e
       -0.2624349 0.06939712 0.21722873 0.162795
0001e0 65 fb d5 bd fd ce 3d bd 8e 81 4b bd a0 e1 a2 3c
       -0.1044834 -0.046339978 -0.0496841 0.019882977
0001f0 05 77 36 3e c4 45 3b bd 09 b0 7f be c3 e5 e8 bd
       0.1781884 -0.04572083 -0.24969496 -0.113719486
000200 cc 79 72 3c 62 98 1a 3e 7e cc d0 bd b6 7e ce bc
       0.014799546 0.15097192 -0.10195254 -0.025206905
000210 08 ee 41 3d 49 78 e4 bd 8a f9 ee 3c b3 37 af be
       0.047346145 -0.11155755 0.029171724 -0.34222183
000220 9e f2 f9 3d fc 7d d1 bb 89 ba ce bd 48 99 e4 3d
       0.12204479 -0.0063931923 -0.100941725 0.111620486
000230 6b ef fa 3c c1 45 4c 3d 12 db 5e 3e c4 f9 88 be
       0.030631742 0.04987121 0.21763256 -0.26753056
000240 f0 02 d2 bd 6f 66 6b be 65 a7 7e 3d 30 c4 a8 bd
       -0.102544665 -0.22988294 0.06217136 -0.08240545
000250 a0 b3 fa ba d3 9c 10 3e ee b0 b6 3d 18 d0 17 3e
       -0.0019127019 0.14122324 0.089204654 0.14825475
000260 ad 8d e4 3b 6e c4 11 be 0e 86 44 3d b9 b0 4f 3e
       0.006974897 -0.14235088 0.047979407 0.20282258
000270 5b 22 e0 bd a7 ac 86 bd 53 90 e7 bc 58 a1 9c bc
       -0.10944053 -0.065758996 -0.028267061 -0.019119903
000280 af 43 77 3d f0 08 5b bd cb e0 90 3e bc 55 2a 3d
       0.060367282 -0.05347532 0.28296503 0.04158567
000290 8b 99 be 3e 29 61 e5 bd 29 a4 af 3d 9a d9 a1 be
       0.3722652 -0.112001725 0.08576233 -0.3161133
0002a0 2b c3 46 3c d1 63 bf bd 67 b4 95 3d 1d 4e 58 3e
       0.012131493 -0.0934521 0.073098 0.21123548
0002b0 7e f6 8a 3e cb fa aa bb 6d f9 c1 bd 51 a7 4a 3e
       0.27141184 -0.005217885 -0.09471402 0.19790389
0002c0 e6 8f 90 3e 8b b1 00 bd b0 72 32 3d 48 57 30 bd
       0.28234786 -0.03141932 0.043566406 -0.043051988
0002d0 21 e7 3b be b3 ac 46 3d 1b ba 9d 3e 38 59 a9 bd
       -0.18349887 0.048504543 0.3080605 -0.0826897
0002e0 2c 4a 50 be c3 e5 38 3d 24 17 d8 3d db 31 3c 3d
       -0.20340794 0.045140993 0.10551289 0.045945983
0002f0 fc 73 2a bd 6d 87 8e 3d 29 d6 82 bd 7b 1e 8a be
       -0.041614518 0.06959424 -0.06388504 -0.2697638
000300 fd 20 91 bd ba a3 2d 3e 25 6e 63 bd 2a c2 42 3e
       -0.0708637 0.16956988 -0.055524964 0.1901938
000310 19 e6 18 be 48 a6 93 3d 70 dc 3a bc 6f e4 48 be
       -0.14931525 0.0720945 -0.011405095 -0.1961839
000320 f9 3f 6d bd a1 1b 85 3c 95 62 ce 3c 36 be 63 3d
       -0.057922337 0.016248526 0.025193492 0.05560132
000330 f7 65 f0 3d c6 17 90 bd 10 79 8e 3d b3 3a 3a be
       0.11738198 -0.070357844 0.069566846 -0.18186454
000340 b9 b6 94 bd ed b3 20 be b1 7c f0 3b a3 98 ad 3d
       -0.07261414 -0.15693636 0.007339083 0.08476379
000350 79 9b ea bd 70 85 c4 3d 44 fe 05 3e 1d 74 68 3d
       -0.11455435 0.09595764 0.13085276 0.05675136
000360 73 2d 66 bd 57 7a ad bc 28 f2 e7 bc 68 ae 1b bd
       -0.056195688 -0.0211765 -0.028313711 -0.038008124
000370 94 29 9f bd 80 7c 37 be 38 08 aa 3d e6 33 4c bc
       -0.07771602 -0.17918587 0.08302349 -0.012463545
000380 77 79 2e 3e 85 1f b5 bd 4f 59 30 3e 33 3f 09 3e
       0.17038523 -0.088439025 0.17221569 0.13403015
000390 6b e3 94 3e 0c ae ec 3b 4d ed 35 3e 7e b7 0e be
       0.29079756 0.0072228964 0.17766304 -0.13937184
0003a0 a9 95 9a bc f8 f2 cc 3c d3 cd 2a 3c 02 83 e4 b8
       -0.018870192 0.0250182 0.010425049 -0.00010896289
0003b0 7e 16 7c 3e ea 34 f7 bd fa 57 7d be 60 a3 6a bc
       0.24617955 -0.120706394 -0.24740592 -0.014321178
0003c0 7c f2 84 3c a2 50 18 be 5b 6b 36 3e 9c 3c 22 bd
       0.016228907 -0.14874509 0.1781439 -0.039608583
0003d0 0e 2d f0 bd a9 ab 06 3e e6 5d a4 3d 32 2b 9c bc
       -0.117273435 0.1315142 0.08025722 -0.019063566
0003e0 07 7e ed bc ef f2 10 be eb e8 5f 3b 36 25 33 3e
       -0.028990759 -0.14155172 0.003416593 0.17494664
0003f0 40 a8 00 3e 11 19 18 3d 45 f2 f4 bd 27 b2 ca bd
       0.12564182 0.03713328 -0.11960272 -0.09897261

rnn.bias_ih f4 [192]
000000 a5 4a 05 be 3c 8b ed 3d 1a 90 01 bd 7b d1 bd 3c
       -0.13016756 0.115988225 -0.031631567 0.023171177
000010 82 6a 8e bd 53 f6 16 bd 21 7a aa 3c 81 d7 2a be
       -0.069539085 -0.036856007 0.020810189 -0.1668377
000020 e1 7f ee bd 39 f6 fa bd a4 36 51 bd 2c 43 03 bd
       -0.11645485 -0.122539945 -0.0510775 -0.032046482
000030 df f5 c2 bd 7d 4d a3 bd 77 a9 3b bd 31 f2 97 bd
       -0.095195524 -0.07973764 -0.04581591 -0.07419241
000040 9d d0 07 be 76 b0 35 bb d4 cb 40 3c 5f 8b 80 bb
       -0.13263173 -0.0027723587 0.011767346 -0.0039228643
000050 2e 6e 10 be e2 ea 04 bd 9b 58 60 bd 79 ab f2 bd
       -0.1410453 -0.032450564 -0.054772 -0.11849112
000060 35 a6 13 3d d3 75 ae 3c d7 87 b5 bd 29 2c 70 bd
       0.03604718 0.021296417 -0.088638 -0.058635864
000070 a7 48 56 bd 9b 07 84 3d 60 dc aa 3c 2f 5c 81 bd
       -0.05231538 0.06446763 0.020857036 -0.06316411
000080 f0 37 e0 bd 34 a9 92 3b 06 07 d7 bd 24 0d 29 be
       -0.10948169 0.004475737 -0.104993865 -0.16508919
000090 e4 a4 28 be ff 87 ac bc fd d7 d5 3d 59 b9 b2 bd
       -0.16469151 -0.021060942 0.10441587 -0.087267585
0000a0 03 25 45 3d bb a8 19 3c 1a 9e ff bd b3 33 40 bd
       0.048131 0.009378607 -0.12481327 -0.046924304
0000b0 57 e2 4f 3d 8e df 0d be dc 0e 8d bb c5 82 4e 3d
       0.050752964 -0.1385481 -0.00430475 0.05041768
0000c0 23 ce 7d bd 2c 4f 5b be 32 4d 06 be a9 e6 d9 bc
       -0.061964165 -0.2141692 -0.13115385 -0.026599245
0000d0 21 22 d7 bd a3 3e 23 be 17 58 c6 bd 16 42 86 bd
       -0.105045564 -0.15941863 -0.096847706 -0.06555574
0000e0 ea 51 2f be d1 0a d3 bd 1c 4a 61 3d c7 02 8a bd
       -0.17121091 -0.103047974 0.055002317 -0.06738811
0000f0 a1 93 2e be b8 5e 42 bd f0 20 d4 bc 10 d0 3d be
       -0.17048503 -0.047453612 -0.025894612 -0.18536401
000100 3b 01 db bc fd c0 56 bd aa 0d 7b 3d aa e8 da bd
       -0.026733985 -0.05243014 0.061292328 -0.106889084
000110 81 5c 82 bd 0a a3 25 3d b4 1d d1 3b ee 33 c8 3d
       -0.063653 0.04043869 0.0063817147 0.0977553
000120 9c 13 21 3d ae a4 cb 3d ac 94 12 3d 90 ea 70 3c
       0.03932534 0.099435195 0.035786316 0.014704362
000130 71 f4 0d be 5c 67 ae 3d 2d 81 e5 bd de 46 98 3d
       -0.13862778 0.08515808 -0.11206279 0.07435392
000140 aa 66 cd bd c8 ee 7d bc bf 23 06 3d 19 c0 23 3b
       -0.10029347 -0.015498824 0.032748934 0.0024986325
000150 5f 6b 28 be 8d 5f c7 3b 57 73 f0 bd 5c 0a 02 3e
       -0.16447209 0.0060843886 -0.11740749 0.12699264
000160 ee 2a cc 3d d5 c3 87 bd f2 23 d1 3c 94 09 45 bd
       0.09969126 -0.06629149 0.025529835 -0.048104838
000170 91 1a 2f be 66 0c 0b be 4d ec 82 3d 8a 88 13 3d
       -0.17099978 -0.13578948 0.06392727 0.036018886
000180 87 49 bd 3d 87 db 79 3d c9 8b 92 bd b9 8b a7 3d
       0.0924254 0.061000373 -0.07155568 0.08180947
000190 6d da 87 bd 43 77 f8 bd db a2 1a be fe 1b e3 bc
       -0.06633458 -0.12132122 -0.15101187 -0.027723309
0001a0 50 6a 53 3d 8d b4 37 ba 65 8e 14 be 7c 78 91 bd
       0.05161506 -0.00070078 -0.14507444 -0.07103059
0001b0 2b dd ae 3d 5f f8 67 3d 15 b7 04 3d ca 43 bd 3d
       0.08538278 0.05663335 0.032401163 0.09241445
0001c0 61 d8 16 be b3 44 f6 3b bb 59 84 bd 4a 2d a6 3d
       -0.1473098 0.007515514 -0.06462427 0.08114107
0001d0 97 46 35 3d 4a c6 8a 3d 96 73 cc 3b b7 87 77 3d
       0.044256773 0.06776102 0.006239365 0.060432162
0001e0 6f af d0 bd 00 4a 3d 3d 1c 63 d7 bd af 41 b5 bd
       -0.10189711 0.04621315 -0.105169505 -0.08850419
0001f0 48 fc fd bd 04 0d dd bc ff b6 cc 3d d8 06 d1 bd
       -0.124016345 -0.026983745 0.09995841 -0.102063835
000200 9b c4 ff bd 65 44 0d be 68 44 c5 3d bd 00 6c 3d
       -0.124886714 -0.13795622 0.09632188 0.05761789
000210 9a 72 02 bd f8 a2 aa 3c be 1a 8f 3d 75 94 27 3d
       -0.031847574 0.020829663 0.069875225 0.040913064
000220 c4 d7 c6 bd 6b c2 16 bd 56 2d 2a 3d a5 5e 18 bd
       -0.09709123 -0.036806505 0.041547142 -0.037199635
000230 06 fd 06 3e a3 d8 82 bd 21 4b af bd 03 81 0e 3d
       0.13182458 -0.063889764 -0.085592516 0.034791004
000240 53 5a 84 3d ee b6 e8 3d b3 19 de 3c 6e 28 af 3d
       0.064625405 0.11363016 0.027111864 0.08552633
000250 81 45 80 3d 31 c7 82 3d 98 56 7b bd 76 55 31 bd
       0.06263257 0.06385649 -0.06136188 -0.043294393
000260 ea f1 f7 bd 7e 40 35 bd eb c9 6d bd 27 3e 0f 3d
       -0.12106688 -0.044250958 -0.058053892 0.034971382
000270 1a e4 08 3e 3c a4 ba bd 2e fd 7a 3d 6e db b4 3d
       0.13368264 -0.091133565 0.061276607 0.088309154
000280 02 c0 e2 bc 66 f4 2a bd 43 1c 4c bd ee 9b 96 3d
       -0.027679447 -0.041736983 -0.04983164 0.0735396
000290 b7 07 8d bc 57 bd c2 bd 72 bc bc bd 62 0e b8 3d
       -0.017215593 -0.0950877 -0.092156306 0.08987118
0002a0 31 32 2a be 5a 41 9e 3c 1f c3 4f bd 7f 57 54 3d
       -0.16620709 0.019318271 -0.05072319 0.051841255
0002b0 2c 15 9e bd 01 e7 bc 3d 71 7b 06 be 97 4a 75 bd
       -0.07718882 0.09223748 -0.13133027 -0.059885588
0002c0 38 63 18 be 7a aa 21 be 21 f3 02 be 21 03 38 3d
       -0.14881599 -0.15787688 -0.12788059 0.04492486
0002d0 e8 3b 8f bc 61 b3 83 bd 75 20 a0 3d e3 a1 b0 3d
       -0.01748462 -0.06430698 0.07818691 0.086246274
0002e0 50 b0 8f bd 50 f5 7b 3d 21 a3 79 ba 66 a5 03 3e
       -0.07016051 0.061513245 -0.00095229043 0.12856063
0002f0 7c 5c 15 3e 2a 1f ab ba 6c 4e e1 3b 65 4b cf 3d
       0.14586061 -0.0013055552 0.0068758037 0.10121802

rnn.bias_hh f4 [192]
000000 e6 6d 4a 3b f0 bc b9 3c 4e 3c 51 3c 2a 0f 99 bb
       0.0030888258 0.0226731 0.012770725 -0.004670997
000010 24 18 c4 bd 0c e6 83 3d 22 c9 1b bd 81 7b f8 bd
       -0.09574917 0.06440362 -0.038033612 -0.121329315
000020 1d b2 3d 3a 77 3a 00 be b7 b1 c8 3a 67 e7 de 3c
       0.0007236319 -0.12522303 0.0015311752 0.02720995
000030 3b 17 c0 bd e7 07 20 be bd bd 16 be 9e 4b 0a be
       -0.09379431 -0.15628015 -0.14720817 -0.13505408
000040 91 2c 3f 3d a6 31 dd bd 2c b1 5a 3d 89 20 b1 bd
       0.04667336 -0.10800485 0.05339162 -0.08648784
000050 40 5e 25 bd 73 4a 89 bd 94 8a b4 3d 5f 2d 57 bd
       -0.040373087 -0.06703653 0.08815494 -0.052533504
000060 15 f2 01 bd 9a 23 51 3d bf 2d 6b 3d f5 5e 3a bd
       -0.031725008 0.051059343 0.057416674 -0.045500714
000070 d2 30 33 3b 63 5c e3 3c ab d3 35 bc 96 44 13 be
       0.0027342332 0.027754014 -0.011097829 -0.14381632
000080 7c a2 fa bd bb 41 52 bd 36 9b 46 bd 04 aa d7 bb
       -0.12238023 -0.051332217 -0.048487864 -0.0065815467
000090 09 2f 9d bb 9e 1f 81 bd 28 99 37 bd 9c 7a cd bd
       -0.004796867 -0.063048586 -0.044823796 -0.100331515
0000a0 70 12 a2 bb aa d0 f6 bd 09 01 44 3d ca ab 88 bd
       -0.0049460456 -0.12051518 0.04785255 -0.06673391
0000b0 ab ee 00 be 2a 3b 15 be 7f f3 2c be c7 9e 95 3d
       -0.12591045 -0.1457335 -0.16889761 0.07305675
0000c0 97 0d 1d be 71 39 75 bd cc 92 21 bd 3d bd 04 3d
       -0.15337215 -0.059869234 -0.039446637 0.032407034
0000d0 88 28 fc bd 5c 5c 7f bd f1 28 bd bc c5 e9 22 3d
       -0.12312418 -0.06234394 -0.023090811 0.03977372
0000e0 b9 02 54 3c 3a 5c 02 be 5c e9 fc bc dc 94 02 be
       0.012940102 -0.12730494 -0.030872993 -0.12752098
0000f0 13 0c 16 be f2 a3 1d be 04 44 2c bc 3f 07 88 bd
       -0.14653043 -0.15394571 -0.010514263 -0.06642007
000100 57 01 23 be 17 1f 44 bd 2a e5 9e 3c c3 05 f8 bd
       -0.1591848 -0.047881212 0.019396383 -0.12110474
000110 99 40 cf bd 36 04 67 3d 1f d2 44 bb 6e b7 7b bd
       -0.10119743 0.0564005 -0.0030032468 -0.06145423
000120 52 e5 0a bd d3 e9 a1 bb c6 34 90 3b eb 14 ca bc
       -0.033910103 -0.004941204 0.0044008223 -0.024668178
000130 0f 3c 58 3d f5 94 7f 3d 15 c9 c2 3d 31 5e da bc
       0.05279165 0.062397916 0.095110096 -0.026656242
000140 ee e3 0e be dc 01 02 be 1c 5a 6a 3d ac aa 0c bd
       -0.13954136 -0.12696022 0.05721484 -0.034342453
000150 dc 0f 8f bd ed ac 43 bd 68 0a 35 bd 4a 18 5f 3d
       -0.06985447 -0.047772337 -0.044199377 0.054466523
000160 1d 79 f2 bd 16 7a 28 be ca 9f a8 3d c6 31 89 bd
       -0.11839507 -0.16452822 0.08233602 -0.06698947
000170 73 93 33 be 9c dc ef bd 8e 97 0f be 58 16 13 be
       -0.17536716 -0.11712 -0.14022657 -0.14363992
000180 e1 f4 ad bc 7b f5 b5 bd 73 ff 9d 3d e4 c4 a9 3d
       -0.021234931 -0.08884712 0.07714739 0.08289507
000190 a3 bd ac bd a1 65 0d bb 6b 8d c6 bc 98 38 73 bc
       -0.08434608 -0.0021575468 -0.024237355 -0.014845036
0001a0 fc bb fe bd 08 64 95 3c ce 7a 17 be d1 63 b7 bd
       -0.12438199 0.018236175 -0.1479294 -0.08954585
0001b0 a8 a5 08 be 44 93 10 bd 8d 8d ea 3c ec 5e b3 bd
       -0.13344443 -0.035296693 0.02863195 -0.08758339
0001c0 92 fa eb bd 92 bc e2 bc 51 b9 a9 bd a6 45 1c bd
       -0.11522402 -0.027677808 -0.082872994 -0.03815236
0001d0 a0 82 9d bc db a5 ad 3d 6c 78 80 bc c2 04 db bd
       -0.019227326 0.084789 -0.015682422 -0.10694267
0001e0 0f 6b 26 38 c9 ba 11 be d6 ea bf bd 6c 7b 1f 3d
       3.967719e-05 -0.14231409 -0.09370963 0.038936064
0001f0 da 76 0f 3d 09 71 9a bd 47 21 46 3d 02 58 3c 3d
       0.035025455 -0.07541091 0.04837158 0.04598237
000200 3c 0d 10 be 12 45 43 3d b6 fc a1 bd 92 88 68 3b
       -0.14067549 0.047673292 -0.07909529 0.0035481793
000210 b1 81 69 3c 39 67 83 3c eb 5e b5 3d ed 16 2e 3d
       0.014252112 0.016040431 0.08855995 0.042502332
000220 9e d0 c2 bd 07 83 9d bd 8f ad d1 3c 5d 2c a6 3d
       -0.09512447 -0.07691007 0.025595454 0.081139304
000230 b9 69 cb 3d 23 9e e5 bc 5c 1c 9d 3d 49 20 8c bd
       0.09932274 -0.028029507 0.07671425 -0.068420954
000240 25 c7 c6 3c 9e b9 d4 bc 5c 3f 99 3d ce 7f 5a 3d
       0.024264881 -0.025967415 0.07482788 0.05334454
000250 b4 29 8a bb 06 3e 2d bc 59 07 c4 bd ac f6 0e 3e
       -0.004216397 -0.01057387 -0.09571714 0.13961285
000260 73 dd db bd 4e 8e 1e bd dc 4e 0e 3e c5 50 92 3d
       -0.107355975 -0.03870993 0.1389727 0.07144312
000270 52 e4 24 bc 06 bf 02 3c f3 b8 06 3e f4 12 cf bc
       -0.010064201 0.007980114 0.1315649 -0.025277592
000280 4c 63 82 3d 3f 0a 81 bd 82 72 9d 3d 10 f1 3f bc
       0.063665956 -0.063007824 0.07687856 -0.011715189
000290 38 19 d5 3d 4e 32 05 3e bd e6 44 bd b1 1f 78 bd
       0.10405201 0.13007471 -0.04807161 -0.0605771
0002a0 bb 51 22 bd 64 81 ca bd 50 1e 76 bd 07 c7 00 be
       -0.039628725 -0.098879606 -0.060087502 -0.12575923
0002b0 c2 7f e8 3d bc 5c 8c 3c 7b 29 5a bc 34 68 02 be
       0.11352493 0.017134063 -0.013315554 -0.12735063
0002c0 58 5f c4 bc 9f 3a ed bc 31 b6 78 3c 8c 04 e9 bd
       -0.023971245 -0.028958617 0.015180157 -0.113778204
0002d0 5e eb c0 ba 96 b2 8d 3d 9d bb 0a 3d 6c 25 1c 3d
       -0.0014718582 0.06918828 0.03387033 0.038121626
0002e0 cd d1 d6 3c 6b 24 25 bd 62 35 13 3d 4f 10 20 3e
       0.026223088 -0.040317934 0.03593958 0.15631221
0002f0 69 9d f9 bc 1b 98 38 bc 4e c9 c6 3d e5 11 22 bc
       -0.030470567 -0.0112667335 0.097063646 -0.009891962

fc2.weight f4 [5, 64]
000000 c4 ae a1 3e c7 ea d2 be ea b8 dd 3e 86 45 af be
       0.31578648 -0.41194746 0.4330514 -0.3423273
000010 e2 1e a9 3e ab 91 c3 3e 5a 98 ca be 1d 08 cc 3e
       0.33031374 0.38197073 -0.3956936 0.3984994
000020 e0 94 b8 3e 7c 72 d5 3e a4 d0 a8 be 3f 9d ba 3e
       0.36051083 0.41688907 -0.3297168 0.36448094
000030 d5 8c bc be 60 99 bb 3e 7b 79 da be 66 b5 68 3d
       -0.36826196 0.36640453 -0.42670807 0.05681362
000040 64 94 bc be 6c d7 d7 3e 7e 2f bd be 01 98 b0 be
       -0.36831963 0.4215654 -0.36950296 -0.3449097
000050 4e 5e a5 be e0 2c be be cf 08 e5 be 86 51 e8 be
       -0.3229851 -0.37143612 -0.44733283 -0.45374697
000060 f2 25 a1 3e d3 53 ed 3b b3 5d c3 be a3 3d ce 3e
       0.31474262 0.0072426586 -0.38157424 0.402814
000070 50 52 9e be 5f a4 a9 3e 04 9c b6 be f0 19 b6 be
       -0.30922174 0.33133218 -0.35665905 -0.35566664
000080 bf 02 bd be 29 9b bc 3e 31 44 ee be 48 c7 96 be
       -0.36916158 0.36837128 -0.465364 -0.29448915
000090 79 7d e9 be ee 9c a4 be d5 ed b1 be fc 9c f3 3e
       -0.4560354 -0.32150978 -0.34751764 0.47580707
0000a0 f8 27 b0 3e 7d f6 dc be 51 04 bd 3e 86 47 c2 be
       0.34405494 -0.43156806 0.36917356 -0.37945193
0000b0 ad c6 cd be 05 e6 ad be ac b9 af 3e f2 26 f8 be
       -0.4019064 -0.33964553 0.34321344 -0.48467213
0000c0 62 28 c2 be fa 34 b5 3e f9 03 e5 be be 77 a8 be
       -0.37921435 0.3539198 -0.44729593 -0.32903856
0000d0 c2 4d e1 3e 4c 88 2f 3d 27 a5 d9 be 59 62 c1 be
       0.44004637 0.042854592 -0.42508814 -0.37770346
0000e0 a1 92 d0 3e 59 2a a3 3e 7c c8 b7 be 4b 7a c7 be
       0.4073687 0.31868246 -0.35895145 -0.3896049
0000f0 28 e8 ab be a2 c2 9d be 60 73 bf 3e 96 b1 e0 3e
       -0.3357556 -0.30812556 0.37392712 0.43885487
000100 38 5a a2 3e 80 e1 cf be 54 40 c1 3e a7 4c b5 be
       0.31709456 -0.4060173 0.3774439 -0.35410044
000110 ae 88 9f 3e e7 4f b2 3e 8d 84 c4 be b1 35 c1 3e
       0.31158966 0.34826586 -0.38382378 0.37736276
000120 7e 60 a6 3e 05 e8 cc 3e 35 0d ae be 2d 67 c9 3e
       0.32495493 0.40020767 -0.3399445 0.3933653
000130 14 a4 a7 be 5a c3 a4 3e e4 bd d9 be 65 34 61 3d
       -0.3274237 0.3218029 -0.42527688 0.054981608
000140 a2 27 af be 5f 2d bf 3e 54 e4 ca be 73 a6 a9 be
       -0.34209925 0.37339303 -0.39627326 -0.33134803
000150 73 37 a0 be 0c f5 a9 be cf b1 ca be 01 8e e0 be
       -0.31292304 -0.33194768 -0.39588782 -0.4385834
000160 7f 62 a8 3e 8f bd d7 3b d8 54 a7 be eb ad b9 3e
       0.32887647 0.0065838764 -0.32681918 0.362655
000170 64 50 a0 be 19 ae a3 3e 2c 99 b5 be 06 44 c2 be
       -0.31311333 0.31968763 -0.35468423 -0.37942523
000180 e7 77 b2 be a1 35 af 3e 2c 49 c6 be ab 1a a0 be
       -0.34857103 0.34220603 -0.387277 -0.31270346
000190 e0 c2 d4 be 7c d8 ae be 39 b3 b7 be b4 b8 e9 3e
       -0.41554928 -0.3414954 -0.35878924 0.4564873
0001a0 0b 67 9d 3e 34 e5 dd be 71 25 bc 3e 2c 2f ae be
       0.30742678 -0.4333893 0.36747316 -0.34020364
0001b0 de de c6 be 68 7d 94 be 32 86 b2 3e 76 ab fa be
       -0.3884191 -0.29001927 0.34868008 -0.4895894
0001c0 f1 47 af be 37 7e a8 3e 83 04 c2 be dc af c5 be
       -0.34234574 0.32908794 -0.37894067 -0.38610733
0001d0 d5 d4 cd 3e d4 b0 4a bc 07 35 bc be 39 8b b7 be
       0.4020144 -0.012371261 -0.36759207 -0.35848406
0001e0 bc 34 c9 3e 5d 9a ab 3e 9d 27 a2 be 1b b2 b7 be
       0.39298046 0.33516207 -0.31670848 -0.3587807
0001f0 2b 3e c0 be d1 b4 9c be 3c 76 d8 3e a7 59 d5 3e
       -0.3754743 -0.30606702 0.42277706 0.41669962
000200 64 47 9b 3e df 66 d8 be c8 88 d0 3e 0e e6 b9 be
       0.30327904 -0.42265984 0.40729356 -0.3630833
000210 9d 34 a8 3e 9e b4 b3 3e 4f 70 b0 be 39 8c e2 3e
       0.3285264 0.35098737 -0.34460685 0.44247606
000220 ac f6 af 3e a3 33 d7 3e ee 35 b6 be 32 85 a1 3e
       0.34367883 0.42031583 -0.3558802 0.31546932
000230 7a 49 ae be 4a 4a c1 3e 36 38 c4 be ef b4 b7 3d
       -0.34040433 0.3775199 -0.38324136 0.08970057
000240 24 46 a4 be c6 d1 b0 3e 27 04 d7 be b7 52 b2 be
       -0.32084763 0.34535044 -0.41995355 -0.3482873
000250 b6 00 9e be 15 3e b1 be cc 1b d6 be d4 71 ef be
       -0.30859917 -0.34617677 -0.41818082 -0.4676653
000260 e5 d3 b2 3e e5 e3 3d bd 55 f1 ab be 55 09 d3 3e
       0.34927288 -0.046359915 -0.3358256 0.41218057
000270 0d 60 aa be 2e 07 b3 3e 52 a3 b0 be 65 e6 ba be
       -0.33276406 0.34966415 -0.34499604 -0.36503902
000280 6d 5f c8 be 70 88 ba 3e dc 7b d0 be 28 34 ad be
       -0.39135304 0.3643222 -0.40719497 -0.33828855
000290 7b 33 d6 be 0b 61 b0 be ff 09 ab be 2b a7 ef 3e
       -0.4183615 -0.34449038 -0.33406064 0.46807227
0002a0 40 38 bd 3e 46 3c db be a8 22 cc 3e 65 af b7 be
       0.36956978 -0.42819422 0.3987019 -0.35876003
0002b0 15 46 bf be 6b c2 bd be dc 39 d0 3e 21 68 fc be
       -0.37358156 -0.37062392 0.40669143 -0.49298194
0002c0 dd 70 9e be d9 42 aa 3e d4 4f b9 be a8 e8 c5 be
       -0.30945483 0.33254126 -0.36193717 -0.38654065
0002d0 a2 0d cc 3e 95 53 cb 3c 65 1a d7 be ff d8 b8 be
       0.3985415 0.024820128 -0.42012325 -0.36103055
0002e0 b4 46 c2 3e 50 b4 90 3e d6 ad ab be e1 bf c5 be
       0.37944567 0.28262568 -0.33531064 -0.38622954
0002f0 c5 d7 b8 be dd 5c a1 be 49 8b bc 3e eb 71 e4 3e
       -0.3610212 -0.31516162 0.36825016 0.44618163
000300 ed 01 91 3e 2e e1 8f be 61 8d 9f 3e 6b d4 61 be
       0.28321782 -0.28101486 0.3116255 -0.22053687
000310 74 2b 7e 3e e0 28 5e 3e 5f c6 c0 be 40 9b 94 3e
       0.24821264 0.2169528 -0.37651345 0.29024696
000320 f7 ab 98 3e 11 84 aa 3e 8c 15 8d be 4c 43 94 3e
       0.298187 0.33303884 -0.275555 0.28957593
000330 b9 4d 88 be f0 c2 66 3e 80 8b 91 be 07 3b 91 be
       -0.26621798 0.225353 -0.28426743 -0.28365347
000340 76 02 6d be 5b d0 bb 3e 16 20 8b be b7 fd 8e be
       -0.2314547 0.366824 -0.27172917 -0.27927944
000350 53 6f 90 be 80 91 7d be 8a 26 94 be 4e 3a 88 be
       -0.28209934 -0.24762535 -0.28935653 -0.26606983
000360 73 4d 92 3e ad 10 95 3e 5f 78 bd be e9 f3 97 3e
       0.28574714 0.29114285 -0.37005898 0.29678276
000370 b6 15 8b be 3f a4 61 3e cb 01 5c be ff 31 87 be
       -0.27165002 0.22035311 -0.21485059 -0.26405331
000380 e8 0e 9e be ee e9 80 3e 5b 97 8e be 42 c6 85 be
       -0.30870748 0.25178474 -0.2784985 -0.2612782
000390 ce b7 82 be cd 85 85 be 59 2f b4 be 2d 8d 86 3e
       -0.25530857 -0.26078644 -0.35192373 0.26279584
0003a0 5c 67 84 3e 33 6c 9c be eb 1c 96 3e 79 7e b8 be
       0.25860107 -0.305513 0.29318938 -0.3603399
0003b0 68 00 a0 be 4b 7b 8a be cd 3f 85 3e 72 a4 89 be
       -0.3125031 -0.2704719 0.2602524 -0.26883274
0003c0 3c 83 ac be f9 47 6b 3e 7b a6 c0 be 73 95 a3 be
       -0.33693874 0.22976674 -0.37627015 -0.31949958
0003d0 94 ca ae 3e be df 91 3e 88 46 9f be d0 1c c9 be
       0.3413893 0.28491014 -0.311085 -0.39279795
0003e0 21 c6 8b 3e a3 2d 86 3e 23 d0 87 be 4b f9 90 be
       0.27299598 0.26206693 -0.26525983 -0.28315195
0003f0 f3 a4 90 be 5b ad 81 be 15 d5 cb 3e bc 88 64 3e
       -0.28250846 -0.25327572 0.39811006 0.22317785

fc2.bias f4 [5]
000000 f2 e0 38 3f 09 38 3e 3f 47 2c 3d 3f 06 09 43 3f
       0.7221824 0.7430425 0.73895687 0.76185644
000010 45 ae 39 3f
       0.7253154
