models/independent_ppo/ppo_critic.pth (torch, 45798 bytes, 5 tensors)

fc.0.weight f4 [128, 18]
0	0xbc13cb2a	-0.009020606
1	0x3c009261	0.007847399
2	0x3be5ac80	0.007009089
3	0x3c8fda2a	0.017560083
4	0x3b0e9e1d	0.0021761723
5	0xbc75dbd4	-0.015006024
6	0xba7d256b	-0.000965676
7	0xbb9f9ed4	-0.0048712287
8	0x3b51dfc3	0.0032024242
9	0xbd47bdaa	-0.048764862
10	0x3a5f9b65	0.00085299305
11	0x3c6e0490	0.014527455
12	0x3c97a260	0.018510044
13	0xbc5bb801	-0.013410569
14	0xbc9f3c7d	-0.019438023
15	0xbcc567a1	-0.024097266
16	0x3c83a355	0.016069094
17	0xbaa9b5d3	-0.0012947865
18	0x3a0c23c9	0.00053459086
19	0x3c197aed	0.009367687
20	0x3d1144d4	0.03546603
21	0x3c3d829b	0.011566783
22	0xbcc346f6	-0.023837548
23	0xbcfb607f	-0.030685661
24	0xbc5e4e1b	-0.0135684265
25	0x3b623813	0.0034518286
26	0xbcae8498	-0.02130346
27	0xbc8e59c9	-0.017376797
28	0x3a94d210	0.0011354107
29	0x3b930d3f	0.004487663
30	0xba950d63	-0.0011371787
31	0xbcd3e2b1	-0.02586493
32	0xbc20f298	-0.009823464
33	0x3b526b18	0.003210729
34	0xbb34a52f	-0.0027564277
35	0x3badd7b9	0.005305257
36	0x3c70088e	0.014650477
37	0xbb03c822	-0.0020108302
38	0xbd34e9bb	-0.044168215
39	0x3c3e921a	0.011631513
40	0x3c0d6cec	0.008631926
41	0xbb13ff6a	-0.0022582659
42	0x3c941b91	0.018079551
43	0xbc610fa5	-0.01373664
44	0x3cae027f	0.021241425
45	0x3d3b547a	0.04573486
46	0x3d183c95	0.03716715
47	0x3ccad5c1	0.024760129
48	0x3aa8b53b	0.0012871394
49	0x3c576479	0.013146513
50	0xbbf3d6ab	-0.007441362
51	0x3ca0172b	0.019542297
52	0xbcc82f80	-0.024436712
53	0x3c9a706e	0.018852439
54	0xba42e4ff	-0.0007434636
55	0x3c9df5cc	0.019282244
56	0x3c2c665c	0.010522451
57	0x3cae6fc6	0.021293532
58	0xbb383b20	-0.0028111413
59	0x387b3f89	5.9902235e-05
60	0x3d5544aa	0.052067436
61	0x3c9da74f	0.019244818
62	0x3c25fbb7	0.010130814
63	0x3bf50b3d	0.0074781463
64	0xbd28ad4c	-0.041180894
65	0x3c0c2f60	0.008556217
66	0xbac0b3fe	-0.0014702079
67	0x3d1ff24d	0.039049435
68	0xbcccfb27	-0.025022103
69	0xbca3a81b	-0.01997762
70	0x3bb88e13	0.005632171
71	0x3c52025e	0.012817947
72	0x3cbdbcc8	0.023161307
73	0xbcdf6d59	-0.02727382
74	0xbd775276	-0.060381375
75	0x3cac05b5	0.020998815
76	0x3d629ea8	0.055327088
77	0xbb7b5ae4	-0.0038353736
78	0xbcf3211b	-0.029678872
79	0xbc84a079	-0.0161898
80	0xbd26eaaa	-0.040751137
81	0xbd0d277b	-0.03446148
82	0xbcccce2d	-0.025000656
83	0x3cef7bf2	0.029233906
84	0x3cfb7ccf	0.030699162
85	0x3bf1f8ba	0.007384387
86	0xbb95035e	-0.0045475205
87	0x3a88d375	0.0010438996
88	0x3c9376db	0.01800101
89	0xbcb413d5	-0.021982113
90	0x3c944abd	0.018102044
91	0x3ce77f0f	0.028258828
92	0x3bf349cf	0.00742457
93	0x3c9877bf	0.018611787
94	0x3b391818	0.002824312
95	0xbb22e9d9	-0.0024858622
96	0xbd0b7ab6	-0.034052573
97	0x3c74fd9c	0.014953043
98	0x3cf84e59	0.030310797
99	0xbb91fd7b	-0.004455266
100	0xb9a44bd5	-0.00031337017
101	0x3cf96c65	0.030447194
102	0x3c848aed	0.016179526
103	0xbbbdd518	-0.005793225
104	0xbcd8bcd5	-0.02645723
105	0xb9eb8cce	-0.000449276
106	0x3c0225b0	0.007943556
107	0xbad0412b	-0.0015888562
108	0x3d149b08	0.03628066
109	0x3ba15637	0.0049236077
110	0xbc495726	-0.012288844
111	0x3cc538ed	0.024074996
112	0xbd4999bc	-0.04921888
113	0xbcddb6e5	-0.02706475
114	0x3aa1690d	0.0012314633
115	0x3c074178	0.008255355
116	0xbb822829	-0.0039720726
117	0xbc646d3e	-0.013942061
118	0x3c9ba695	0.019000331
119	0x3ce54c71	0.027990552
120	0xbc597e82	-0.013274791
121	0xbbb4f0de	-0.0055218777
122	0x3d1c477d	0.038154114
123	0xbb1daa09	-0.0024057648
124	0xbcd69470	-0.026193827
125	0x3cf723ca	0.030168433
126	0xbb0dad4c	-0.0021618186
127	0x3c3c2b63	0.011484954
128	0xbc99ccf2	-0.018774483
129	0x3d1aaf6a	0.037764944
130	0xbc0a1a23	-0.008429083
131	0xbd084835	-0.033271987
132	0xbce01f67	-0.027358724
133	0xbc557a54	-0.013029654
134	0xbb1e33ed	-0.0024139837
135	0x3d39f5e6	0.045400523
136	0xbcd0f1f6	-0.025506001
137	0x3cb35605	0.021891603
138	0x3d164501	0.0366869
139	0xbd594852	-0.053047486
140	0x3d3b4d5c	0.045728073
141	0x3bda08b7	0.006653871
142	0xbc9a2f67	-0.018821431
143	0x3c0987b7	0.008394173
144	0xbb50d21d	-0.0031863519
145	0x3bf039e4	0.00733112
146	0xbca9d8cf	-0.020733265
147	0x3d42941f	0.04750454
148	0x3ca1abdd	0.019735271
149	0xbd22258a	-0.03958658
150	0xbd2b336f	-0.041797098
151	0xbcd2eb6e	-0.025747027
152	0xbcda1bc1	-0.026624562
153	0xb928d729	-0.00016101882
154	0x3c00b492	0.007855551
155	0xbc485afa	-0.012228722
156	0x3d5eb7c4	0.05437447
157	0x3c1703fb	0.009217258
158	0x3c9a76ca	0.018855471
159	0x3c6bc44c	0.014390063
160	0x3c9a4c59	0.018835234
161	0xbcbf6259	-0.023362326
162	0x3ccca93c	0.024983041
163	0x3ccd271e	0.025043067
164	0xbb69de3c	-0.003568544
165	0x3adcfbd7	0.0016859722
166	0x3cf9cef3	0.030494189
167	0x3c60f53b	0.0137303425
168	0x3aef3715	0.0018250669
169	0xbbe38d71	-0.0069443514
170	0xbcd7f902	-0.026363853
171	0xb9fead44	-0.00048575748
172	0x3c46f682	0.012143733
173	0x3c8bad15	0.017050305
174	0xb992a02c	-0.00027966627
175	0x3bcde1df	0.0062830294
176	0xbbddd759	-0.006770056
177	0x3c0f750c	0.0087559335
178	0xbbb92b5c	-0.005650921
179	0x39492b85	0.00019185066
180	0x3d054f41	0.032546286
181	0x3cf1f7bf	0.02953708
182	0xbc9ccd9e	-0.019141015
183	0x3b1e9bbf	0.0024201719
184	0x3d3b028b	0.045656722
185	0xbbc9f366	-0.0061630486
186	0xbcf1317b	-0.02944254
187	0x3c981a3d	0.018567199
188	0x3c93f8c5	0.018062958
189	0xbc5415ea	-0.012944678
190	0x3d1e7233	0.038683128
191	0x3c859397	0.016305728
192	0x3d1cddc2	0.038297422
193	0xbcdb59ba	-0.026776183
194	0x3cde2d81	0.027121307
195	0xbb5e9ed4	-0.003396918
196	0x3b969fab	0.0045966706
197	0x3bbfda92	0.005854913
198	0xbb828083	-0.003982605
199	0x3c9f0202	0.019410137
200	0xbd54849e	-0.051884286
201	0x3ae08328	0.0017128931
202	0xbad272bd	-0.0016055923
203	0xbc3ef329	-0.011654654
204	0xbcccdbb2	-0.025007103
205	0xbca2ec36	-0.019888025
206	0x3bd540e7	0.006507981
207	0x3c6176f0	0.013761267
208	0xbbedfb69	-0.0072626364
209	0x3c9da7b6	0.01924501
210	0x3c8238e1	0.015896263
211	0xbb83e922	-0.0040255943
212	0x3ca0f832	0.019649599
213	0x3d0d5409	0.03450397
214	0xbc2a7cae	-0.0104057025
215	0xbd096ec5	-0.033552904
216	0x3c09cd58	0.008410774
217	0xbc1bb58e	-0.009503735
218	0xbca52255	-0.020157972
219	0xbc6f9e23	-0.014625105
220	0xbd1e4d86	-0.03864815
221	0xbc4e90da	-0.0126077775
222	0x3ba45bed	0.005015841
223	0x3c625f19	0.013816618
224	0x3c1aab66	0.009440279
225	0xbd0b5dc6	-0.034024976
226	0x3d0d912e	0.034562282
227	0x3c2682d7	0.010163031
228	0xbb4647b9	-0.0030255152
229	0x3c9f5dec	0.019453965
230	0x3a98d022	0.0011658708
231	0x3ce3adb4	0.027792789
232	0x3c7a369b	0.015271808
233	0xbcf033eb	-0.029321631
234	0xbabb5592	-0.001429247
235	0x3c2f7136	0.010708144
236	0x3bf07a5b	0.0073388047
237	0xbcc71071	-0.024299832
238	0xbb34f869	-0.0027613884
239	0xbc2b3740	-0.010450184
240	0x3cf19ddc	0.029494219
241	0xbcd3a5e3	-0.025835937
242	0x3a6b8c57	0.0008985451
243	0xbc57041b	-0.013123537
244	0x3c564c1b	0.013079668
245	0xbc3ec558	-0.01164373
246	0x3c57421f	0.013138323
247	0xbd03e003	-0.032196056
248	0xbbd16b06	-0.006390932
249	0xbd2331fe	-0.0398426
250	0xbc8d13e1	-0.017221393
251	0xbc87e456	-0.016588371
252	0x3d04bf6c	0.032409117
253	0x3cbd1ed6	0.023085993
254	0xbc8ba37d	-0.01704573
255	0x3d0a96ef	0.033835348

fc.0.bias f4 [128]
0	0x3f7f3168	0.9968476
1	0x3f8387eb	1.0275854
2	0x3f819dc2	1.0126269
3	0x3f7417f9	0.9534908
4	0x3f7e7764	0.99400926
5	0x3f8263e6	1.0186737
6	0x3f807a07	1.003724
7	0x3f86f758	1.0544233
8	0x3f82c57d	1.0216519
9	0x3f83f6ea	1.0309727
10	0x3f7d5259	0.9895378
11	0x3f8434f0	1.0328655
12	0x3f82637d	1.0186611
13	0x3f81124d	1.008371
14	0x3f80a1c0	1.0049362
15	0x3f74cf36	0.9562868
16	0x3f7c21a0	0.9848881
17	0x3f820250	1.0156956
18	0x3f80f7be	1.0075605
19	0x3f7bc0be	0.98340976
20	0x3f81048d	1.0079514
21	0x3f80aafe	1.0052183
22	0x3f85f8a2	1.0466502
23	0x3f803c1f	1.0018348
24	0x3f8123d0	1.0089054
25	0x3f7965fd	0.97421247
26	0x3f7dbced	0.991164
27	0x3f7d88b6	0.9903673
28	0x3f81de14	1.0145898
29	0x3f803b50	1.0018101
30	0x3f802741	1.0011979
31	0x3f7e7f68	0.99413157
32	0x3f7dc8ca	0.99134505
33	0x3f7fce3b	0.9992406
34	0x3f80f6a4	1.0075269
35	0x3f83b407	1.0289315
36	0x3f81cdd7	1.0140942
37	0x3f7ba80e	0.98303306
38	0x3f7faa98	0.9986968
39	0x3f80cc8e	1.0062425
40	0x3f7e6548	0.9937329
41	0x3f80498f	1.0022448
42	0x3f78c387	0.9717335
43	0x3f8056d9	1.0026504
44	0x3f7a87bd	0.9786337
45	0x3f812215	1.0088526
46	0x3f802258	1.0010481
47	0x3f80fd60	1.0077324
48	0x3f81342d	1.0094048
49	0x3f841fe6	1.0322235
50	0x3f800234	1.0000672
51	0x3f7d5d9b	0.98970956
52	0x3f8861fa	1.06549
53	0x3f7b55fa	0.98178065
54	0x3f7ed0c4	0.995373
55	0x3f7f4ba6	0.99724805
56	0x3f83f8f3	1.0310348
57	0x3f82d1d4	1.0220284
58	0x3f8133ff	1.0093993
59	0x3f7ba7ba	0.98302805
60	0x3f84cf62	1.0375788
61	0x3f815359	1.0103561
62	0x3f84b809	1.0368663
63	0x3f82f2d8	1.023036
64	0x3f783917	0.9696211
65	0x3f808b5b	1.0042528
66	0x3f82e214	1.0225244
67	0x3f813975	1.009566
68	0x3f8495ce	1.0358217
69	0x3f86e013	1.0537132
70	0x3f802d67	1.0013856
71	0x3f7bd07f	0.98365015
72	0x3f86de71	1.0536634
73	0x3f7d8cab	0.9904277
74	0x3f819570	1.012373
75	0x3f76bb22	0.9637929
76	0x3f80876e	1.004133
77	0x3f83eb8a	1.0306256
78	0x3f82f24f	1.0230197
79	0x3f82632a	1.0186512
80	0x3f7fb968	0.9989228
81	0x3f758fc2	0.9592248
82	0x3f8354e7	1.0260285
83	0x3f7c0cc4	0.9845698
84	0x3f833b96	1.0252559
85	0x3f7efb67	0.9960236
86	0x3f808295	1.003985
87	0x3f841dc1	1.032158
88	0x3f7c867c	0.98642707
89	0x3f7e743f	0.9939613
90	0x3f7f443c	0.9971349
91	0x3f7b5ce6	0.98188627
92	0x3f83fbfa	1.0311272
93	0x3f7d7e93	0.9902126
94	0x3f809d64	1.0048032
95	0x3f8122e5	1.0088774
96	0x3f7fcec1	0.99924856
97	0x3f820514	1.01578
98	0x3f792fe1	0.9733868
99	0x3f772fff	0.9655761
100	0x3f82c46b	1.0216192
101	0x3f7f47e7	0.9971909
102	0x3f822c39	1.0169746
103	0x3f872455	1.0557963
104	0x3f826df7	1.0189809
105	0x3f816c17	1.0111111
106	0x3f7d6c2e	0.98993194
107	0x3f80aae1	1.0052148
108	0x3f86b4c2	1.0523913
109	0x3f7a9504	0.9788363
110	0x3f7fde51	0.999486
111	0x3f80f486	1.0074623
112	0x3f7f801c	0.99804854
113	0x3f81c35b	1.0137743
114	0x3f78415b	0.96974725
115	0x3f81ea88	1.0149698
116	0x3f871ac7	1.0555047
117	0x3f80704a	1.0034268
118	0x3f8072bd	1.0035015
119	0x3f853964	1.0408139
120	0x3f83054d	1.0235993
121	0x3f821bf4	1.0164781
122	0x3f7fc421	0.99908644
123	0x3f8009da	1.0003006
124	0x3f81bba8	1.0135393
125	0x3f779b2b	0.9672114
126	0x3f81abe9	1.0130588
127	0x3f802c0e	1.0013444

fc.2.weight f4 [64, 128]
0	0xbc815513	-0.015787637
1	0xbce1e102	-0.027573112
2	0x3b951939	0.004550126
3	0xbd02a2e9	-0.031893644
4	0x3d13310a	0.03593544
5	0xbc55364b	-0.013013433
6	0xbc1d0c50	-0.009585455
7	0x3d2d7892	0.042351313
8	0xbcc1568e	-0.023600843
9	0x3d575b17	0.052577104
10	0x3cb483ac	0.022035442
11	0x3c1140bf	0.008865534
12	0xbbe2accd	-0.006917572
13	0xbc62e6dd	-0.013848987
14	0x3d359b47	0.044337537
15	0x3d6e98e4	0.058251277
16	0x3c1ba54d	0.00949986
17	0xbb54b1c3	-0.0032454587
18	0x3ce8437d	0.028352493
19	0x3cd0f5c3	0.025507813
20	0x3d035a40	0.03206849
21	0x3c48c355	0.012253602
22	0x3caa8cc4	0.020819075
23	0xb913d6c4	-0.00014099019
24	0x3ba9bb17	0.0051797736
25	0x3b0242c9	0.0019876233
26	0xbca38cb9	-0.019964563
27	0x3ca6df66	0.020370197
28	0xbc41144f	-0.011784627
29	0x3ccc1324	0.02491147
30	0xb9f3291f	-0.0004637921
31	0x3c0b5bdb	0.008505787
32	0x3b8b56a1	0.0042522703
33	0xbc7f45a9	-0.015580573
34	0xbbfc211d	-0.007694377
35	0x3d1f9cb9	0.03896782
36	0xba8e602c	-0.0010862402
37	0xbbbf7a47	-0.005843434
38	0x3c864d4b	0.016394278
39	0x3cfbfa42	0.03075898
40	0x3d06a094	0.032867983
41	0x3adf43ad	0.0017033719
42	0x3c7298cd	0.014806938
43	0x3d32b36f	0.043628152
44	0xbcbd8f4e	-0.023139622
45	0x3c93f2be	0.018060084
46	0x3d3f5554	0.046712235
47	0x3c8209e4	0.015873857
48	0x3d30484f	0.04303771
49	0x3c7f3300	0.015576124
50	0x3c4dd2de	0.012562482
51	0xbb72b07f	-0.003703147
52	0x3cab767a	0.020930517
53	0xbcb04980	-0.021519423
54	0x3d009e88	0.031401187
55	0x3cfaab92	0.03059939
56	0x3caf220d	0.021378541
57	0x3c16de02	0.009208204
58	0x3bffabfb	0.007802484
59	0x3c769312	0.015049713
60	0xbc9ce539	-0.01915227
61	0x3c85721b	0.016289761
62	0xbc97c71c	-0.01852756
63	0xbba2c3af	-0.004967175
64	0xbc1da6bf	-0.009622275
65	0x3c883407	0.016626371
66	0x3c9c193d	0.019055003
67	0xbc4b3013	-0.0124015985
68	0x3c32f7db	0.010923351
69	0x3ba2cec3	0.0049684956
70	0xbc042cfd	-0.008067367
71	0xba5e98b2	-0.00084913813
72	0x3cb09542	0.021555547
73	0xbc60c1a4	-0.0137180425
74	0x3c218817	0.0098591065
75	0xbc1c9bf1	-0.009558664
76	0x3c5a230f	0.013314023
77	0x3d26ab4b	0.0406907
78	0xbd28ba74	-0.04119344
79	0x3cc1f190	0.023674756
80	0x3d49de0b	0.049284022
81	0x3c91f006	0.017814647
82	0x3c54226e	0.012947662
83	0x3d099d65	0.03359737
84	0xbbec7573	-0.0072161495
85	0x3c18febf	0.00933808
86	0x3beafdcb	0.0071713678
87	0x3d020aea	0.03174869
88	0x3cf759ec	0.030194245
89	0x3b305d9c	0.0026911264
90	0xbcaf129f	-0.021371184
91	0x3c1e6106	0.009666687
92	0x3c028913	0.007967251
93	0x3ca08caf	0.019598333
94	0x3c953cb7	0.018217428
95	0x3d864f11	0.065580495
96	0x3ceca043	0.028885012
97	0x3d44c491	0.048039023
98	0x3aacfc7c	0.0013197805
99	0x3bf4ef88	0.0074748434
100	0xbb6a59c7	-0.0035759078
101	0x3c269520	0.01016739
102	0xbc0f18d4	-0.008733947
103	0x3d2a175f	0.041526195
104	0xbc8c508a	-0.017128248
105	0xbc3dfdf8	-0.011596195
106	0x3d1e7cef	0.038693365
107	0xbcb035a4	-0.021509953
108	0xbc833cf5	-0.016020278
109	0xba08a341	-0.0005212315
110	0xbb6d4582	-0.003620476
111	0x3d0a1854	0.033714607
112	0x3d24d0a2	0.04023803
113	0x3c6cefc5	0.014461462
114	0x3c29085b	0.0103169335
115	0xbab4342d	-0.001374846
116	0x3d0a7e8a	0.033812083
117	0x3c3a559f	0.011372953
118	0x3c93a97b	0.01802515
119	0x3cd8dd29	0.026472645
120	0x3bfc67ae	0.0077027893
121	0x3d1505e3	0.036382567
122	0xbc6f910f	-0.014621987
123	0x3d377f96	0.04479941
124	0xbb365458	-0.002782127
125	0x3be3570a	0.006937866
126	0x3bc86f27	0.006116766
127	0x3cce0f74	0.025153853
128	0xbc33fadc	-0.0109851025
129	0xbb3a30ff	-0.0028410552
130	0xbd5565bf	-0.052098986
131	0xbcfce145	-0.030869136
132	0xbb8f3e58	-0.0043714456
133	0x3ca9f0ee	0.020744767
134	0xbc35a83d	-0.011087474
135	0xbceb8a0e	-0.028752353
136	0x3d101ab6	0.035181724
137	0xbce00ed6	-0.027350824
138	0x3c925169	0.017861085
139	0xbc641635	-0.01392131
140	0xbca9b042	-0.02071393
141	0xbc7ecac7	-0.015551276
142	0xbd38990d	-0.045067836
143	0xb8bd99ec	-9.0408925e-05
144	0xbbe52ac0	-0.0069936216
145	0xbc955d7b	-0.018233052
146	0xbc9505db	-0.018191269
147	0x3cb640ba	0.02224766
148	0xbc8d8b13	-0.01727823
149	0xbd4022db	-0.04690824
150	0xbabd1a5f	-0.0014427415
151	0xbd155d5c	-0.036465988
152	0xbd0bdd3b	-0.03414653
153	0xbc9b8005	-0.018981943
154	0xbb4f2076	-0.0031605042
155	0xbc259cac	-0.010108154
156	0x3c5c1f28	0.013435163
157	0xbca7a106	-0.020462524
158	0xbc538f7e	-0.012912629
159	0xbb98b1ab	-0.0046598515
160	0x3c825265	0.01590843
161	0xbd2c16c3	-0.042013895
162	0xbc870df8	-0.016486153
163	0xbc0720c2	-0.008247556
164	0xbc563035	-0.013073017
165	0xbb1f1f75	-0.0024280224
166	0x3b9a5193	0.0047094314
167	0xbcb167d8	-0.021655962
168	0xbc08c185	-0.00834692
169	0xbd55c6f2	-0.052191682
170	0xbb5e1712	-0.0033888263
171	0x3a2ae579	0.00065191794
172	0xbc287501	-0.010281802
173	0xbd3d7aaa	-0.04625956
174	0xbba8afd6	-0.0051479144
175	0xbce67858	-0.028133556
176	0xbc27a364	-0.010231826
177	0x3b6213f7	0.0034496763
178	0xbc7fa293	-0.015602726
179	0xbd101582	-0.03517676
180	0xbcc0c91c	-0.023533396
181	0xbc18c04d	-0.009323192
182	0xbc2a1585	-0.010381107
183	0xbd00f849	-0.031486783
184	0xbbfe2b7b	-0.007756648
185	0xbca8fbbd	-0.02062785
186	0x3c0a7010	0.008449569
187	0xbc9c8266	-0.019105148
188	0xbb9582c3	-0.004562707
189	0xba341888	-0.00068701105
190	0xbd1da315	-0.038485605
191	0x3cbc219d	0.022965247
192	0x3b874e5f	0.0041292156
193	0x3abfe7a2	0.0014641176
194	0xbd3be879	-0.045876
195	0x3c9637a8	0.018337086
196	0xbcbf4d8d	-0.023352409
197	0xbb83da94	-0.0040238593
198	0xbbf0cd59	-0.007348698
199	0xbaa6e192	-0.001273202
200	0xbccceb89	-0.025014656
201	0xbc8fd0ad	-0.017555559
202	0x3b745397	0.0037281269
203	0x3b40bcbb	0.0029409367
204	0xbd41cd76	-0.047315083
205	0xbc7e307d	-0.01551449
206	0xbc873b02	-0.01650763
207	0x3a9a3aa7	0.0011766747
208	0xbd165020	-0.036697507
209	0x3ce33c24	0.027738638
210	0x3d28d958	0.0412229
211	0xbc1b2c5f	-0.009471028
212	0xbbee42e9	-0.00727116
213	0x3b873871	0.0041266014
214	0xbc7eb50b	-0.015546094
215	0x3c6a455f	0.014298766
216	0xbb0661a1	-0.0020504969
217	0xbc178ca2	-0.009249838
218	0xbc199f39	-0.009376341
219	0xba8a9db7	-0.0010575567
220	0xbaca2aaa	-0.0015424092
221	0xbcdc08c8	-0.026859656
222	0xbd3048a2	-0.043038018
223	0xbd06cd3e	-0.032910578
224	0xbd09bf04	-0.033629432
225	0xbac5243a	-0.0015040704
226	0xbb9c0c6b	-0.0047622225
227	0xbc6cd1be	-0.014454303
228	0x3c14c5d7	0.009080372
229	0xbbcb32f2	-0.0062011415
230	0xbce16de9	-0.02751823
231	0x3ca7c3df	0.02047914
232	0xbbb2926b	-0.0054495833
233	0xbd2c78b9	-0.042107318
234	0x3c22e74f	0.009942844
235	0x3c859c01	0.01630974
236	0xbccbfe4d	-0.024901533
237	0xbd089db2	-0.033353515
238	0x3c987fb4	0.018615581
239	0xbce897f6	-0.028392773
240	0x3c2230ec	0.009899359
241	0xbcedb667	-0.02901764
242	0xbd0fe2ac	-0.03512828
243	0xbcbf6d88	-0.023367658
244	0xbcb56588	-0.02214314
245	0xbc2c49d4	-0.010515649
246	0xbc9ffc8d	-0.019529605
247	0xbce1d2e3	-0.027566379
248	0xbce33c57	-0.027738733
249	0x3ca8fb08	0.020627514
250	0xb9de003a	-0.00042343308
251	0xba9a3152	-0.0011763966
252	0x3cbff651	0.023432883
253	0xbd04da6f	-0.032434877
254	0xbcc51c2f	-0.02406129
255	0xbd487ae5	-0.048945326

fc.2.bias f4 [64]
0	0x3f7e29a3	0.9928228
1	0x3f747353	0.9548847
2	0x3f78b602	0.9715272
3	0x3f804696	1.0021541
4	0x3f7d4674	0.9893563
5	0x3f82b4f6	1.0211475
6	0x3f7f32c8	0.9968686
7	0x3f796fae	0.97436035
8	0x3f73d1c4	0.9524195
9	0x3f785b6d	0.97014505
10	0x3f7fc121	0.99904066
11	0x3f84896e	1.035444
12	0x3f7882d0	0.97074604
13	0x3f82598b	1.0183576
14	0x3f864870	1.0490856
15	0x3f8152fb	1.0103449
16	0x3f79d3bd	0.9758871
17	0x3f7c6fd4	0.98608136
18	0x3f81a611	1.0128804
19	0x3f828af3	1.0198654
20	0x3f753c97	0.9579558
21	0x3f83665b	1.0265611
22	0x3f772828	0.9654565
23	0x3f842de9	1.0326511
24	0x3f81ee33	1.0150818
25	0x3f837139	1.0268928
26	0x3f85710f	1.0425128
27	0x3f816171	1.0107862
28	0x3f812ae7	1.0091218
29	0x3f807582	1.003586
30	0x3f800c62	1.0003779
31	0x3f7855f4	0.97006154
32	0x3f82959b	1.0201906
33	0x3f7bfd8b	0.9843375
34	0x3f816911	1.0110189
35	0x3f810918	1.00809
36	0x3f7ac2a0	0.97953224
37	0x3f818d3d	1.0121228
38	0x3f80a119	1.0049163
39	0x3f7f47f2	0.99719155
40	0x3f7afd32	0.98042595
41	0x3f8141c9	1.0098201
42	0x3f7c9d15	0.9867719
43	0x3f79761b	0.9744584
44	0x3f83512b	1.0259145
45	0x3f80dacd	1.0066773
46	0x3f7c7d25	0.98628455
47	0x3f83bdd0	1.0292301
48	0x3f7fbe6b	0.9989993
49	0x3f8145c9	1.0099422
50	0x3f781abf	0.9691581
51	0x3f82420e	1.0176408
52	0x3f800ef3	1.0004562
53	0x3f841ed2	1.0321906
54	0x3f811ffd	1.0087887
55	0x3f7db7f7	0.99108833
56	0x3f78f30a	0.9724585
57	0x3f817174	1.0112748
58	0x3f7e5695	0.99350864
59	0x3f82c3d4	1.0216012
60	0x3f80c219	1.0059234
61	0x3f821795	1.0163447
62	0x3f776275	0.9663461
63	0x3f83a5e9	1.0285007

fc.4.weight f4 [1, 64]
0	0xbcf76d6a	-0.03020354
1	0x3bc53003	0.0060176863
2	0xbc3757d6	-0.011190375
3	0xbced1312	-0.028939757
4	0xbbdb5c63	-0.006694363
5	0xbd4d388b	-0.05010275
6	0x3bfcfa23	0.0077202483
7	0x3b0ff54c	0.0021966277
8	0x3c51be2f	0.012801691
9	0xbbb4f95a	-0.005522889
10	0xbae362e4	-0.0017348197
11	0xbcca8d57	-0.0247256
12	0xbcb430fa	-0.02199601
13	0xbc8123ce	-0.015764143
14	0xbca89eeb	-0.02058359
15	0xbd2e4520	-0.04254639
16	0xb97895ff	-0.00023707001
17	0xbc773524	-0.015088353
18	0x3b7ba00d	0.0038394958
19	0x3c848e76	0.016181212
20	0x3bb5240a	0.005527978
21	0xbd13f1e4	-0.036119357
22	0x3c0e4eb9	0.008685761
23	0xbcf7a0ee	-0.030228104
24	0x3a0b9f7f	0.0005326196
25	0xbc9b80c2	-0.018982295
26	0xbc94438a	-0.018098611
27	0xbc7a6e04	-0.015285019
28	0xbc5fe3e7	-0.013665176
29	0xbc3c7222	-0.011501821
30	0xbb54efd2	-0.0032491577
31	0x3b7c87f0	0.0038533174
32	0xbc72334c	-0.014782738
33	0x3bf58717	0.0074929106
34	0xbd848388	-0.064704
35	0xbc84c3f0	-0.016206712
36	0xbbd3335d	-0.006445332
37	0xbc98c2d5	-0.01864759
38	0xbd1377b0	-0.036002815
39	0xbcbbc3a2	-0.022920433
40	0xbc0df6aa	-0.008664766
41	0x3cb2b76d	0.02181598
42	0x3d256395	0.040378172
43	0x3c48d8ab	0.012258689
44	0xbd00be4e	-0.03143149
45	0x3b46db61	0.0030343162
46	0x3c156061	0.009117217
47	0xbca4d1ac	-0.02011951
48	0xbd587814	-0.05284889
49	0xbd617295	-0.055040915
50	0x3c9b4b9c	0.018956952
51	0xbc8492e8	-0.016183332
52	0xbc57bad3	-0.013167101
53	0xbc8a265a	-0.01686399
54	0xbd1a9181	-0.03773642
55	0x3a042f8f	0.0005042487
56	0xbb3c8618	-0.002876645
57	0xbd479c70	-0.048733175
58	0xbcfa9aeb	-0.030591449
59	0xbcbea84f	-0.023273615
60	0xbd418fd1	-0.047256295
61	0x3c4e050a	0.012574444
62	0x3b1c0862	0.0023808707
63	0xbcbef5ea	-0.02331062
